(base) C:\motion-detection>python CNN_model.py
Using TensorFlow backend.
X_train shape = (258002, 27, 9)
Y_train shape = (258002, 11)
X_test shape = (64500, 27, 9)
Y_test shape = (64500, 11)
X_train shape = (258002, 27, 9)
Y_train shape = (258002, 11)
X_test shape = (64500, 27, 9)
Y_test shape = (64500, 11)
_________________________________________________________________
Layer (type)                 Output Shape              Param #
=================================================================
input_1 (InputLayer)         (None, 27, 9)             0
_________________________________________________________________
zero_padding1d_1 (ZeroPaddin (None, 31, 9)             0
_________________________________________________________________
conv1d_1 (Conv1D)            (None, 27, 64)            2944
_________________________________________________________________
batch_normalization_1 (Batch (None, 27, 64)            108
_________________________________________________________________
activation_1 (Activation)    (None, 27, 64)            0
_________________________________________________________________
dropout_1 (Dropout)          (None, 27, 64)            0
_________________________________________________________________
conv1d_2 (Conv1D)            (None, 23, 64)            20544
_________________________________________________________________
batch_normalization_2 (Batch (None, 23, 64)            92
_________________________________________________________________
activation_2 (Activation)    (None, 23, 64)            0
_________________________________________________________________
dropout_2 (Dropout)          (None, 23, 64)            0
_________________________________________________________________
conv1d_3 (Conv1D)            (None, 21, 32)            6176
_________________________________________________________________
batch_normalization_3 (Batch (None, 21, 32)            84
_________________________________________________________________
activation_3 (Activation)    (None, 21, 32)            0
_________________________________________________________________
dropout_3 (Dropout)          (None, 21, 32)            0
_________________________________________________________________
conv1d_4 (Conv1D)            (None, 19, 32)            3104
_________________________________________________________________
batch_normalization_4 (Batch (None, 19, 32)            76
_________________________________________________________________
activation_4 (Activation)    (None, 19, 32)            0
_________________________________________________________________
dropout_4 (Dropout)          (None, 19, 32)            0
_________________________________________________________________
flatten_1 (Flatten)          (None, 608)               0
_________________________________________________________________
dense_1 (Dense)              (None, 256)               155904
_________________________________________________________________
dropout_5 (Dropout)          (None, 256)               0
_________________________________________________________________
dense_2 (Dense)              (None, 128)               32896
_________________________________________________________________
dropout_6 (Dropout)          (None, 128)               0
_________________________________________________________________
dense_3 (Dense)              (None, 11)                1419
=================================================================
Total params: 223,347
Trainable params: 223,167
Non-trainable params: 180
_________________________________________________________________
Train on 206401 samples, validate on 51601 samples
Epoch 1/10
2018-07-09 12:40:12.650228: I T:\src\github\tensorflow\tensorflow\core\platform\cpu_feature_guard.cc:140] Your CPU supports instructions that this TensorFlow binary was not compiled to use: AVX2
…
